…
s":"ok","timestamp":1696987744939,"user_tz":180,"elapsed":720,"user":{"displayName":"Leandro Leon (ontvonline.net)","userId":"03611305714687899577"}},"outputId":"f6ec869e-7618-4763-e3be-61af82da679d"},"execution_count":null,"outputs":[{"output_type":"execute_result","data":{"text/plain":["==========================================================================================\n","Layer (type:depth-idx)                   Output Shape              Param #\n","==========================================================================================\n","Model1                                   [1, 5828]                 --\n","├─Embedding: 1-1                         [1, 3, 5]                 29,145\n","├─LSTM: 1-2                              [1, 3, 64]                51,456\n","├─Linear: 1-3                            [1, 32]                   2,080\n","├─ReLU: 1-4                              [1, 32]                   --\n","├─Linear: 1-5                            [1, 5828]                 192,324\n","├─Softmax: 1-6                           [1, 5828]                 --\n","==========================================================================================\n","Total params: 275,005\n","Trainable params: 275,005\n","Non-trainable params: 0\n","Total mult-adds (M): 0.38\n","==========================================================================================\n","Input size (MB): 0.00\n","Forward/backward pass size (MB): 0.05\n","Params size (MB): 1.10\
…
